models/simpleModel.pth (torch, 6192 bytes, 3 tensors)

fc1.weight f4 [64, 14]
00000000: 761e 0d3e 093c d0bb 525d 35be f1a8 7fbe
00000010: 7588 eebd a2ac 76be 9199 7f3d 285f 80be
00000020: 0f0a 04be 5196 65be a0f2 313e db59 51be
00000030: 8c4f af3d 1b91 153e cd5b ca3d 5449 693d
00000040: d03c 76bd 74d9 edbe 3876 3d3e 3c46 4cbd
00000050: 2df0 d33d b393 fe3e caa0 2340 b8c9 d13c
00000060: 9647 ce3d e49e 64be 7c68 073e c799 86be
00000070: 4432 72be c7b1 403c 7094 8bbe 912c 57be
00000080: c421 713d aa97 c13d 7d74 38be 2157 5fbe
00000090: 3d05 30bf 0e4f 4b3d 9508 f53c 1a0e a4be
000000a0: d9da a13d 59ac a4be d85c 76be ec62 94be
000000b0: 6ab0 93be 0193 88be cc3c 4fbe ef59 5bbd
000000c0: 90bb 72be ea45 3a3d 6c8d 49bc 4f58 863d
000000d0: d6e8 803b ef4a 9e3d 36be 12be d53d b8be
000000e0: 3882 933d 8e49 88bd a051 253e 741e 7fbe
000000f0: e416 e5bd 20fd 3c3c 12e9 b1bd 546b 36bd
00000100: 281a 663d 3043 593d e012 0d3d f819 56bd
00000110: 9aa7 733e 94d3 663e 012c 53be 9e6f d03d
00000120: 6187 61bd 141a 19be 1c7f 0c3e 5213 29be
00000130: f467 c2bd 7e9f 9e3e 3bfb 0c40 2770 08be
00000140: 523e 91be 9f90 64be 4923 9abc 3db1 a93d
00000150: fc7e 63bd 0994 863c af18 81be bc59 a4bd
00000160: 3403 7fbe 4cbd 8cbd 6c0f f0bd c822 70be
00000170: f426 08be ce46 dabd 40e8 663c 2b44 aabd
00000180: 3527 cdbe 6321 c8be 9f88 8d3d 97f8 cbbd
00000190: 4740 8c3d 0025 d4bd 257c 923d c993 30be
000001a0: 1075 193d 379d d43c 5e34 39be bd57 813d
000001b0: fc47 5ebe 50e3 25be 37c3 83bb 91ae e0bc
000001c0: c4e5 d63d e4b3 64be 9853 4a3d 3227 64be
000001d0: 8a3e 6cbe 5249 7c3e 8409 08bd f481 3dbe
000001e0: bae6 87be b81a 1c3d 6826 54be 60d4 98bc
000001f0: 4aa9 6bbe 525c 6e3e c3b4 96be b2fe 62be
00000200: 358a 1d3d 4d7c 393d 981e 5ebd 73e1 f8bd
00000210: 6d4c 3f3e 6572 6c3d 28c9 7ebe e75d cebd
00000220: 1b65 5cbe 2b7a 80be 16e7 8fbe 8852 78be
00000230: 5163 43be 38b5 29bd 9586 44be 91f8 41be
00000240: 9be9 30be 2b88 543d fe17 553d a5e9 38bd
00000250: c1f5 bcbe 1fbd 2bbe b62d afbc a8e7 0b3c
00000260: 4bb8 a2be 0201 cabe d3cd 7e3e 92b5 3cbe
00000270: 20e7 133b 2bce e5be 10b9 8bbe b006 3bbd
00000280: 93c3 0c3c b304 cabe 25b4 313f cf20 d73d
00000290: b0c6 773d 3416 07be 9fec 1c3e f58f acbd
000002a0: cb90 b93e ff7f 9abd c2eb 3bbf d37a 113f
000002b0: 1250 8a3c 5bf7 4fbc d52d d13d 51a7 533e
000002c0: 8ea8 223f 922d a5be 0b24 713d eab8 d1bc
000002d0: f590 92bc 5e4c 773f b820 973e 37aa 84bd
000002e0: 9eb4 c1bf 821d 2d3f 95e6 65bd d2d8 3dbe
000002f0: c8a4 e93d 259c 043f 05de bb3f 061f ffbc
00000300: 20ba b5bd 929e 7bbe 444b 9e3e 0d65 b83f
00000310: f7b3 a1be 9bb9 7bbe 804c 643c 7311 70be
00000320: 7930 b0bc 4f83 293d 455b a7bd 5374 71bc
00000330: e2e6 f73c 972f 55bd f031 cfbd 583e 9c3d
00000340: e0d9 34bc e862 a3be ab40 26be 084a 29be
00000350: 60d0 d63c 16c4 6a3e 08af ae3d 187b 7cbe
00000360: eff5 933c 5702 6abe 8422 65be 1a37 0e3e
00000370: 9163 19bd 5a29 37bd ea1e 51be b764 e3bd
00000380: bce3 1bbe 4e34 6abe f2c6 ba3b 9b56 6ebe
00000390: d348 73bd 6e47 6cbe e633 1c3e 828a 09be
000003a0: 5542 313e 1636 f2bc 02e2 b5bd 36f3 98be
000003b0: 3447 9b3d c5dc 2abd 92d5 3d3e 7e2d 29be
000003c0: 372c 1bbe 10cd 23be 26c4 3e3e 2bf1 1abe
000003d0: 526c 13be c0ff 583c 727e 9dbd df98 80be
000003e0: a8d2 f93d e6f6 18be be38 793e b068 c33c
000003f0: cc6b 04be 6a66 68be b9a5 433e 3d43 36bc
0.13781151 -0.006354813 -0.1771138 -0.2496679 -0.11647121 -0.24089292 0.06240231 -0.25072598
-0.12894462 -0.22420622 0.1737771 -0.20444433 0.08560094 0.14606135 0.09880791 0.056954697
-0.06011659 -0.46454966 0.18502128 -0.04987167 0.10348544 0.4972206 2.5566888 0.025608882
0.10072248 -0.22326237 0.13223451 -0.26289198 -0.23651987 0.011761135 -0.27261686 -0.21013094
0.058870092 0.09452756 -0.18013187 -0.21810581 -0.68757993 0.04963594 0.029911319 -0.3204201
0.0790307 -0.3216274 -0.24058855 -0.2898172 -0.2884553 -0.26674655 -0.20238036 -0.053552564
-0.23704362 0.04547683 -0.012301784 0.06559812 0.003934006 0.07729136 -0.14330372 -0.35984674
0.07202572 -0.066546544 0.16144419 -0.2491396 -0.11186007 0.011534959 -0.08687033 -0.04453595
0.05617729 0.05304259 0.03444183 -0.05227086 0.23794404 0.22541648 -0.20622255 0.10177539
-0.055060748 -0.14951354 0.13720363 -0.16511276 -0.09492484 0.30981058 2.202834 -0.13324033
-0.2836786 -0.22320794 -0.018815653 0.08285759 -0.055541024 0.01642801 -0.25214145 -0.08024928
-0.24903566 -0.06872043 -0.117216915 -0.23450768 -0.1329611 -0.10658036 0.014093459 -0.08313783
-0.40068975 -0.39087972 0.06910824 -0.09959524 0.068481974 -0.1035862 0.07152585 -0.17243876
0.037465155 0.025953872 -0.18086383 0.06315563 -0.21707147 -0.16199994 -0.004021074 -0.02742699
0.10493043 -0.22334248 0.049396127 -0.22280577 -0.23070732 0.24637344 -0.0332122 -0.18506604
-0.26543218 0.03811142 -0.20717776 -0.018655956 -0.23013797 0.23277405 -0.29434785 -0.22167471
0.038461883 0.045284558 -0.054228395 -0.12152376 0.18681498 0.057726283 -0.24881423 -0.10076504
-0.21522944 -0.25093207 -0.28105992 -0.24250233 -0.19080855 -0.04143259 -0.19191964 -0.18942477
-0.17276613 0.051887672 0.052024834 -0.045144696 -0.36906245 -0.16771363 -0.021384101 0.008539118
-0.3178123 -0.39453894 0.24883203 -0.18428639 0.002256818 -0.44883856 -0.2728963 -0.045660675
0.00859155 -0.3945671 0.69415504 0.105043046 0.060492218 -0.13192064 0.15324639 -0.08425895
0.3624328 -0.075439446 -0.7340661 0.5682804 0.016883884 -0.0126932515 0.1021382 0.20669295
0.63538444 -0.3226133 0.058872264 -0.02560087 -0.017891387 0.966009 0.2951715 -0.064777784
-1.5133245 0.6762315 -0.056128103 -0.18539742 0.11408383 0.5180076 1.467713 -0.031142723
-0.08873391 -0.24572209 0.30916798 1.4405838 -0.31582615 -0.24582522 0.013934255 -0.23444156
-0.021507489 0.04138499 -0.08171705 -0.0147372065 0.03026146 -0.05204734 -0.10116947 0.076290786
-0.011038274 -0.31911397 -0.16235606 -0.16532147 0.026222408 0.22926363 0.08529478 -0.24656332
0.018061606 -0.22852455 -0.22376448 0.13888207 -0.03744847 -0.04471717 -0.20421949 -0.11103194
-0.15223593 -0.22871515 0.0056999857 -0.23275225 -0.059395622 -0.23074123 0.15254173 -0.13431743
0.1731046 -0.029566806 -0.08880998 -0.29873055 0.0758194 -0.04171445 0.18538502 -0.1652126
-0.15153585 -0.15996194 0.18629512 -0.15131061 -0.1439679 0.013244569 -0.07690133 -0.2511663
0.121983826 -0.14937934 0.24338052 0.02385363 -0.12931746 -0.22695318 0.19106187 -0.011124429

fc1.bias f4 [64]
00000000: 1c7f 91be cb8e abbd 9953 193d 6b99 b4be
00000010: 7cf9 23bd bf47 f3bd ac3b 00be 45ec bc3d
00000020: d6f7 8dbd e095 173e 206f ad3d 47ca d1bd
00000030: a18d 08be 26ae 45bc ab0c 92be e1e1 73be
00000040: 6b80 1d3e a8f3 283d 9747 4c3e cf0e eabc
00000050: 56c0 96bd 987f dabe 6d4c 82bd 038b 7abe
00000060: e502 de3d ad8b 03be f3fd f8bd 1fac 75bd
00000070: 67e6 913d e114 94be a016 333e ab79 89be
00000080: 7cc2 f8bb 1298 10bc 0895 793d 4a62 503d
00000090: 7529 743e ea38 293d 649a 38bd 9302 9a3e
000000a0: 6ae6 3e3d dc4a 9dbe 8162 31be 27fc aebd
000000b0: 4a66 62be 33d0 663d 352b c9bd bf77 aa3d
000000c0: 6a5d 3d3e efac 8fbe c7a4 45be f5fd 173e
000000d0: 3ca5 a3bc 2a99 2e3e bbaa 6a3e 08ee 023e
000000e0: 2999 34be 76d8 fabd b61a 1cbe a341 f33c
000000f0: 0eda 22be 92e2 39be 3031 f7ba cb9d c9bd
-0.2841729 -0.08376845 0.03743324 -0.352733 -0.04003285 -0.11878919 -0.12522763 0.09224752
-0.069320366 0.14803267 0.08468461 -0.102436595 -0.13335277 -0.012065446 -0.2852529 -0.23816635
0.15381019 0.041247994 0.19949184 -0.028571514 -0.07360904 -0.4267547 -0.06362233 -0.24467091
0.10840396 -0.12846251 -0.12157812 -0.0599786 0.07124024 -0.2892218 0.174891 -0.26850638
-0.0075915437 -0.008825319 0.060933143 0.050874986 0.2384394 0.041314043 -0.045069113 0.3008009
0.04660646 -0.30721176 -0.17322733 -0.08544188 -0.22109333 0.056350898 -0.09822694 0.08323621
0.18492666 -0.28061625 -0.19301139 0.1484297 -0.01997625 0.17050615 0.22916691 0.12786114
-0.17636551 -0.12248318 -0.15244564 0.029694384 -0.15903494 -0.18152836 -0.0018859264 -0.0984455

fc2.weight f4 [1, 64]
00000000: 277f c63b 93ad 023d 9452 f53a 189b 91bc
00000010: 703f 7dbc 18e8 8e3c 237d f83a 3474 6dbd
00000020: 8871 13bd b762 eaba 9533 9fb8 44be 14bd
00000030: bc80 7d3c 6bad ad3d 3ea8 de3a 86b6 e9bc
00000040: aa88 743b 00b3 0ebd 681a b2bd 6b8e 07ba
00000050: 8db8 5b3b d522 9539 2df1 e9bc fbf0 3db7
00000060: adca 013a ee00 6c3b 3e7d 2cbb 6a5f fe3b
00000070: 40b4 223c 0af5 60bc dc53 a2bc 86a5 92ba
00000080: c9c0 c0bb 8f73 413b 7022 e53d 26ee b4bc
00000090: 82e4 d8bb 6b77 fb3b ee2d 4abb 33a0 1dbc
000000a0: 7990 1d3b d029 88bb 1df2 b5bc a488 8e3c
000000b0: 1082 ea3c f5ff 713b 7859 e0bb 93f4 3dbb
000000c0: 1916 67bc 3629 1fba 98a3 033b 75dc b33c
000000d0: 7378 5d3a 84fd cab9 ae9f 1fbc 86f1 d43d
000000e0: c999 3d3b 563b b33b c0ce bf3d 4783 3f3b
000000f0: 2c9b aabd fc27 293c c111 63bc c010 9abc
0.006057638 0.031903815 0.0018716627 -0.01777415 -0.015457019 0.017444655 0.0018958192 -0.057972148
-0.035996944 -0.0017882203 -7.591319e-05 -0.036314264 0.015472587 0.084803425 0.0016987396 -0.028529417
0.0037312903 -0.034838676 -0.08696443 -0.0005171063 0.003352675 0.00028445447 -0.028557384 -1.13213855e-05
0.00049511605 0.0036011296 -0.0026319767 0.007762839 0.00993067 -0.013730297 -0.019815378 -0.0011188246
-0.005882357 0.0029518341 0.11188209 -0.022086214 -0.006619037 0.007674148 -0.003085013 -0.009620714
0.0024042411 -0.004155375 -0.022210175 0.01739914 0.028626472 0.0036926244 -0.006846603 -0.002898489
-0.01410439 -0.00060715096 0.0020086523 0.021955708 0.0008448429 -0.00038717326 -0.00974266 0.103976294
0.0028930774 0.00546972 0.09365606 0.0029222535 -0.08330378 0.010324474 -0.013859213 -0.018806815
